XTC/xtc_model.pth (torch, 206932 bytes, 10 tensors)

lstm.weight_ih_l0 f4 [256, 2]
0	0x3e0449c5	0.12918766
1	0xbd5f43ab	-0.054507893
2	0x3c7b7173	0.015346873
3	0xbe1aafdc	-0.15106148
4	0x3d16f227	0.03685203
5	0xbdc0b46c	-0.09409413
6	0xbe2fe360	-0.1717658
7	0xbe0eedd9	-0.13957919
8	0xbe16b0a2	-0.14715818
9	0xbd0c554a	-0.034261025
10	0x38dbd630	0.00010482629
11	0xbdfe5302	-0.12418176
12	0x3ccc7d5e	0.024962123
13	0xb9cdb408	-0.0003923478
14	0x3e1d4264	0.15357357
15	0x3d8c3af2	0.068471804
16	0xbd9df56a	-0.07712825
17	0xbccee4a5	-0.02525551
18	0xbcc3cd06	-0.023901474
19	0xbde49f63	-0.11163213
20	0x3da0e02a	0.07855256
21	0xbe187cc0	-0.14891338
22	0x3d744da7	0.059644368
23	0x3ce6f415	0.02819256
24	0x3c1f5a36	0.009726098
25	0x3e1cdb6c	0.15318078
26	0x3db072bf	0.08615636
27	0x3cbc9703	0.023021227
28	0xbc2e2a45	-0.010630195
29	0x3d620fa2	0.05519069
30	0x3d842c55	0.06453768
31	0x3c9116e3	0.017711109
32	0x3d771191	0.060319487
33	0xbcb70dd4	-0.022345461
34	0xbc83605e	-0.016037162
35	0xbdfa61c6	-0.1222568
36	0x3ceb1f81	0.028701546
37	0x3dc1e869	0.09468157
38	0x3b5e65dc	0.0033935225
39	0x3d8e7f2d	0.069578506
40	0xbc4ea380	-0.012612224
41	0x3d988e49	0.07449014
42	0xbd86f3db	-0.065894805
43	0x3e179251	0.14801909
44	0xbceaa453	-0.028642809
45	0x3d6d073a	0.05786822
46	0x3db9f98e	0.09080802
47	0x3d129774	0.03578897
48	0x3ca4ac1b	0.020101598
49	0x3da01c54	0.07817903
50	0x3d6259eb	0.055261534
51	0xbd8ae1b4	-0.06781331
52	0xbcff1b88	-0.031141058
53	0xbe05e599	-0.13075866
54	0xbd80595c	-0.06267044
55	0xbdf1d5f7	-0.11808389
56	0x3e0af78c	0.13570994
57	0xbdfaa072	-0.12237634
58	0x3ce06c9f	0.027395545
59	0xbd433260	-0.047655463
60	0xbd6036e9	-0.054739866
61	0x3d306e80	0.04307413
62	0x3d7889d6	0.060678326
63	0xbd25d664	-0.040487662
64	0xbdc58456	-0.09644382
65	0x3d5e914c	0.054337785
66	0xbb7760e9	-0.0037746972
67	0x3cdbb222	0.026818339
68	0x3ddbebf4	0.10738364
69	0x3d098881	0.033577446
70	0x3d41f100	0.047348976
71	0x3ca800cc	0.020508192
72	0xbe04c400	-0.12965393
73	0x3d3e61ec	0.046480104
74	0xbc001e3e	-0.00781971
75	0xbe25c9c1	-0.16190244
76	0x3d06bfe0	0.03289783
77	0xbd61e0f0	-0.055146158
78	0xbd80ddf8	-0.06292337
79	0x3d4fa7c6	0.05069711
80	0xbd1fdd25	-0.03902926
81	0x3db8299c	0.08992311
82	0xbde917d7	-0.113815
83	0x3daf7539	0.0856728
84	0x3d6fa0a8	0.058502823
85	0x3cc5cc3b	0.024145236
86	0xbd2d2c19	-0.042278383
87	0xbe182cd2	-0.14860848
88	0x3dcaa9c8	0.098956645
89	0xbd072f99	-0.033004377
90	0xbc08f12e	-0.008358283
91	0xbca07256	-0.01958577
92	0x3db9de9d	0.09075663
93	0x3e42a7a8	0.19009268
94	0xbdad2831	-0.084549315
95	0x3e10a8a9	0.14126839
96	0xbd91b3e5	-0.0711439
97	0x3daa0d2c	0.083032936
98	0x3db56114	0.08856407
99	0x3d27c408	0.040958434
100	0xbd1f0b73	-0.03882928
101	0xbe0767e7	-0.1322323
102	0xbe3e4622	-0.18581441
103	0x3d9cfad0	0.07665026
104	0x3dc2fd69	0.095209904
105	0x3d76e6d3	0.060278725
106	0x3db22854	0.08699098
107	0xbd09b515	-0.03361996
108	0x3c19b779	0.009382122
109	0xbdc37908	-0.09544569
110	0x3cc3dc5f	0.023908792
111	0xbd775288	-0.060381442
112	0xbd26370a	-0.040579833
113	0xbd709d01	-0.05874348
114	0xbd9906b5	-0.074719824
115	0xbb24b2e4	-0.0025131041
116	0x3d8271a1	0.06369329
117	0x3cc05679	0.023478733
118	0x3dcfde49	0.101498194
119	0x3ddadea3	0.10686996
120	0x3de2bb19	0.11070842
121	0xbe4d7cb0	-0.20067096
122	0xbd58ef65	-0.05296268
123	0xbe43276c	-0.19058007
124	0x3c9e94af	0.019358007
125	0x3e339f35	0.17541201
126	0xbd4e21b1	-0.0503251
127	0xbdc16a4a	-0.09444101
128	0x3e0267f7	0.12734972
129	0xbd31d253	-0.04341347
130	0xbd56fba3	-0.052486073
131	0x3d35a7a9	0.044349346
132	0xbe230932	-0.15921476
133	0x3d052cca	0.032513417
134	0x3d6a0b1a	0.057139494
135	0xbda53658	-0.08067006
136	0xbd8d2b59	-0.068930335
137	0xbdbd212e	-0.09234844
138	0xbd39a1a0	-0.045320153
139	0xbe07b1da	-0.13251439
140	0x3cace506	0.0211053
141	0xbe031797	-0.12801968
142	0x3e1d5b5d	0.15366884
143	0x3d30c00c	0.0431519
144	0x3e14c435	0.14527972
145	0xbe3ab151	-0.18231703
146	0x3c2e5f25	0.010642801
147	0xbe32b038	-0.17450035
148	0xbcd07989	-0.025448577
149	0xbd069bd6	-0.03286346
150	0x3c65c9fb	0.014025207
151	0x3d9e380d	0.077255346
152	0xbbefd086	-0.007318559
153	0x3d4117ba	0.047141768
154	0xbda09a71	-0.07841957
155	0x3b71dcc4	0.0036905268
156	0xbe22e699	-0.15908279
157	0xbdf2ef17	-0.11862009
158	0x3cdb54e6	0.026773881
159	0x3d173f74	0.036925748
160	0x3d7ef4b3	0.062245082
161	0x3c5bb998	0.013410948
162	0x3d0046e6	0.031317614
163	0xbe2b740c	-0.16743487
164	0xbd8128dc	-0.063066214
165	0x3dc5646e	0.09638296
166	0x3df3a883	0.118973754
167	0xbcd10860	-0.025516689
168	0x3e1998d4	0.14999706
169	0x3cb0a26a	0.02156182
170	0xbe192400	-0.14955139
171	0x3e25a492	0.1617606
172	0x3d1132a5	0.03544869
173	0x3daf72f6	0.08566849
174	0xbced89c7	-0.028996361
175	0x3ce2dea5	0.027694056
176	0x3ddc1450	0.10746062
177	0x3c4aa458	0.012368284
178	0x3d528802	0.05139924
179	0x3c99f6b3	0.018794393
180	0xbd74fe8f	-0.05981308
181	0xbca33e12	-0.019927058
182	0x3c685a40	0.0141816735
183	0x3c889446	0.016672265
184	0x3c51c267	0.012802697
185	0xbe38126f	-0.17975782
186	0xbdfb7b7c	-0.12279412
187	0x3db76227	0.08954268
188	0x3c854050	0.016266018
189	0x3d4fc861	0.050728206
190	0xbd8286e2	-0.06373383
191	0x3d278eb1	0.040907566
192	0x3d4b3bd5	0.049617607
193	0xbd9e3fa0	-0.07726979
194	0xbd2e0513	-0.042485308
195	0x3b91c5b6	0.004448618
196	0xba9cc31a	-0.001196
197	0x3b977cb0	0.004623018
198	0xbe0c1bd1	-0.13682486
199	0x3d586b74	0.05283685
200	0x3d8da491	0.06916154
201	0x3cbda647	0.023150576
202	0x3d1a7455	0.0377086
203	0x3b982db4	0.00464412
204	0x3d8af048	0.06784111
205	0xbe310292	-0.17286137
206	0x3e17c142	0.14819816
207	0x3e371d1b	0.17882197
208	0x3cf7fe7a	0.030272711
209	0xbdf65045	-0.12027029
210	0x3da5daa5	0.08098344
211	0xbd51b8a3	-0.051201474
212	0x3bdfc527	0.0068289223
213	0xbc3a36c3	-0.011365595
214	0x3de41647	0.111370616
215	0xbd86196b	-0.06547817
216	0x3cfce75b	0.030872038
217	0x3d6a899c	0.05726014
218	0xbdf95b0f	-0.12175571
219	0x3dd85d7e	0.10564707
220	0x3dc64c32	0.09682502
221	0x3d12291e	0.035683744
222	0xbe26d7ae	-0.16293213
223	0x3d2bea1a	0.041971304
224	0xbe2cc944	-0.16873652
225	0xbda3ea33	-0.08003654
226	0x3e0076ca	0.12545314
227	0x3dbf73ae	0.09348236
228	0x3d62355c	0.05522667
229	0xbe07e835	-0.13272174
230	0xbd4a71f2	-0.049425073
231	0x3dd20b8d	0.102561094
232	0xbda0ec68	-0.07857591
233	0xbd6109f9	-0.05494115
234	0x3d35f4b6	0.044422828
235	0xbe122782	-0.14272884
236	0xbd18becc	-0.037291333
237	0x3c8dc593	0.017306125
238	0x3c7837f3	0.015150058
239	0xbe0af41e	-0.13569686
240	0x3cd15ea4	0.025557823
241	0xbd817b9d	-0.063224055
242	0xbdc4f6af	-0.09617364
243	0xbd9f71ff	-0.07785415
244	0x3df0cf28	0.11758262
245	0xbcf235ab	-0.029566607
246	0x3dbea648	0.093090594
247	0xbdac78ac	-0.08421454
248	0x3dba12d9	0.09085626
249	0xbe31548a	-0.17317405
250	0x3d77e35d	0.060519565
251	0x3c89255a	0.016741443
252	0xbe12f103	-0.14349751
253	0x3c214eee	0.009845478
254	0xbd3b53c2	-0.045734175
255	0xbd215eb9	-0.039396975

lstm.weight_hh_l0 f4 [256, 64]
0	0x3d40aa22	0.04703725
1	0x3be10c60	0.0068679303
2	0xbbdf23df	-0.006809696
3	0xbd6278c6	-0.05529096
4	0xbd93d751	-0.07218803
5	0x3d548942	0.05188871
6	0x3e2a72ab	0.16645305
7	0xbd45bef4	-0.04827781
8	0x3dedc010	0.11608899
9	0xbde39a9a	-0.11113472
10	0xbda11ac0	-0.0786643
11	0x3c17e049	0.009269782
12	0x3c47356e	0.012158735
13	0x3e02aa0f	0.12760185
14	0x3d60b6fd	0.05486201
15	0xbde58ea5	-0.11208848
16	0x3d34df87	0.044158485
17	0x3dd6e2e2	0.10492493
18	0x3d9c71a2	0.07638861
19	0x3bd1cdf5	0.006402726
20	0x3d9d28a5	0.07673768
21	0xbdc35013	-0.09536757
22	0x3ddd41b5	0.10803548
23	0x3dbb40d6	0.09143226
24	0xbca5fe81	-0.020262958
25	0x3d7fa9e6	0.062417887
26	0xbdc3bf63	-0.095579885
27	0xbde0edd4	-0.10982862
28	0xbcdf3c14	-0.027250327
29	0x3de5cedb	0.11221095
30	0x3e013131	0.12616421
31	0x3df4cdf6	0.119533464
32	0x3d104a78	0.03522727
33	0xbcb470bd	-0.022026414
34	0xbd4e52e3	-0.050372016
35	0xbdc03685	-0.09385399
36	0xbd91fec4	-0.07128671
37	0x3cf7e995	0.030262748
38	0xbd86ca93	-0.06581607
39	0xbd212008	-0.039337188
40	0x3e0b0f9c	0.13580173
41	0xbd816577	-0.06318181
42	0x3cbe6c39	0.023244964
43	0x3d9a67d9	0.075393386
44	0x3d4170fa	0.047226883
45	0xbb953cf0	-0.0045543835
46	0x3d98677e	0.074416146
47	0xbce9fd5b	-0.028563192
48	0x3d5ba6b5	0.05362578
49	0x3d2de0c6	0.04245069
50	0xbe075aa2	-0.13218167
51	0xbdf963ec	-0.12177262
52	0x3da65f03	0.08123591
53	0x3d13cf00	0.036086082
54	0x3df9c1b7	0.12195151
55	0xbde46feb	-0.11154159
56	0x3d495b0d	0.0491591
57	0x3d90e959	0.070757575
58	0x3afd867b	0.0019342446
59	0xbd966fb6	-0.07345526
60	0x3df1e47a	0.118111566
61	0x3d6f763e	0.058462374
62	0x3c4317d2	0.011907535
63	0x3e030f58	0.12798822
64	0xbddccc2e	-0.10781132
65	0xbd8f904f	-0.070099466
66	0x3d88282e	0.06648289
67	0x3d72f255	0.059313137
68	0xbd4bb98d	-0.049737502
69	0x3d7a0663	0.061041247
70	0x3e0cfb09	0.13767637
71	0x3df2cc51	0.118553765
72	0xbda82792	-0.082106724
73	0xbd92cc3d	-0.071678616
74	0xbdbe0c08	-0.092796385
75	0x3dad66c1	0.084668644
76	0xbdbdbeb9	-0.09264893
77	0x3e03f1c8	0.12885201
78	0x3d8bb6d1	0.06821979
79	0x3daec1b5	0.085330404
80	0xbc74a551	-0.014931993
81	0x3d7d4a94	0.0618387
82	0x3c9981bb	0.018738618
83	0x3d876331	0.06610716
84	0x3c83cb3e	0.016088124
85	0xbdf51216	-0.1196634
86	0xbddefe5d	-0.1088836
87	0x3da6e552	0.08149208
88	0x3e14108f	0.14459442
89	0xbd2e9b87	-0.04262879
90	0xbdcb3f02	-0.09924127
91	0x3d854a00	0.06508255
92	0x3d29d4c1	0.041462664
93	0xbc37509e	-0.011188654
94	0xbdc8c7b6	-0.09803717
95	0x3d610e79	0.054945443
96	0xbda6cac2	-0.08144142
97	0x3d0f43a2	0.03497661
98	0xbd9af9a2	-0.07567145
99	0x3c9404c5	0.01806868
100	0x3bc2d95e	0.0059463223
101	0xbdd1fa0f	-0.10252773
102	0xbc3fcf45	-0.011707132
103	0x3d87c776	0.06629841
104	0xbda8f1d9	-0.08249254
105	0x3c71a017	0.014747641
106	0xbd105748	-0.035239488
107	0x3e12e0ed	0.14343615
108	0xbcf2ad5c	-0.02962368
109	0x3ca14848	0.019687787
110	0xbdf5af66	-0.11996345
111	0xbd17b5d6	-0.037038647
112	0x3dba35ec	0.09092316
113	0x3d9417ef	0.072311275
114	0x3ce4efe2	0.027946416
115	0xbdaaa85a	-0.08332892
116	0xbd066b73	-0.032817315
117	0x3d37ae9b	0.04484425
118	0xbd905f12	-0.07049383
119	0x3b8d5b98	0.0043138973
120	0x3d430d4f	0.047620114
121	0x3d0c40f6	0.03424164
122	0x3da26c1b	0.07930776
123	0xbd74433c	-0.059634432
124	0xbd880330	-0.06641233
125	0xbcb79682	-0.022410635
126	0xbd0d629b	-0.034517866
127	0xbd425887	-0.047447708
128	0xbdb95019	-0.090484805
129	0x3da2c383	0.07947447
130	0xba13ebda	-0.00056427496
131	0xbd156f6a	-0.036483206
132	0xbcf16a5f	-0.029469667
133	0xbd8afc87	-0.06786447
134	0xbcd1cf00	-0.0256114
135	0xbd23448b	-0.03986029
136	0x3d37775e	0.04479157
137	0x3cd7d628	0.026347235
138	0xbc4726fc	-0.012155291
139	0xbddb478e	-0.10707007
140	0x3d879155	0.06619517
141	0x3ccd4adf	0.025060115
142	0xbd8deb57	-0.06929653
143	0x3d9729bf	0.07381009
144	0xbbc2a520	-0.0059400946
145	0x3d0b417f	0.03399801
146	0xbdd8a31c	-0.10577986
147	0x3d0c6317	0.034274187
148	0x3dbcf58b	0.09226521
149	0xbdb16e5f	-0.0866363
150	0xbce072b7	-0.02739845
151	0xbdcdb461	-0.1004417
152	0x3dbef577	0.093241625
153	0xbd8c3d3c	-0.06847617
154	0xbda56654	-0.08076158
155	0x3c8c28d2	0.017109308
156	0xbdae017b	-0.08496376
157	0x3d56360f	0.052297648
158	0x3dedc6f0	0.1161021
159	0x3dcbbdc3	0.099483036
160	0xbbba9fd0	-0.0056953207
161	0xbd8a7667	-0.06760865
162	0x3d10ed90	0.035382807
163	0xbd67d697	-0.056601133
164	0x3d0bbdb6	0.03411647
165	0x3d12a767	0.03580418
166	0xbc28d2ff	-0.010304212
167	0x3dc9e9a8	0.098590195
168	0x3d64a958	0.05582556
169	0x3dce12a9	0.10062153
170	0x3dcf9056	0.10134952
171	0x3d17d6bb	0.037070017
172	0x3df54828	0.11976653
173	0xbce154f7	-0.027506335
174	0xbd76c1b9	-0.060243342
175	0x3c87fd95	0.01660041
176	0xbc7b2788	-0.015329249
177	0x3c7babdc	0.015360799
178	0xbbb99e54	-0.005664626
179	0xbd8bab2b	-0.06819757
180	0x3d5e4d62	0.054273017
181	0xbc7164ca	-0.014733503
182	0x3ded76d8	0.11594933
183	0xbd8a988d	-0.06767378
184	0x3de38615	0.111095585
185	0xbe01c0db	-0.12671225
186	0x3dd40a43	0.1035352
187	0xbdb8dde3	-0.090266965
188	0x3d73e668	0.059545904
189	0xbc9e10fc	-0.019295208
190	0x3da095bf	0.07841062
191	0x3db261d5	0.08710066
192	0xbd449751	-0.04799587
193	0xbdfe03be	-0.124030575
194	0x3c71fd0a	0.014769802
195	0xbcb6ce9e	-0.02231532
196	0x3cad1277	0.021126969
197	0xbd96d6ed	-0.073652126
198	0x3d0d33cf	0.034473237
199	0xbe1c2f74	-0.15252477
200	0x3d8eb51f	0.0696814
201	0xbd92e2e1	-0.0717218
202	0x3b922e9e	0.0044611236
203	0x3b774829	0.003773222
204	0xbdf9299b	-0.12166139
205	0x3cee342a	0.029077608
206	0xbd4ea92c	-0.050454304
207	0x3d234ce4	0.03986825
208	0x3cbe093f	0.023197768
209	0x3ca74831	0.020420166
210	0x3c98210e	0.01857045
211	0x3d2a2167	0.04153576
212	0xbda93abb	-0.08263155
213	0xbc865ea0	-0.016402543
214	0x3cb5f2ce	0.022210505
215	0xbe112842	-0.14175513
216	0x3d6801af	0.05664223
217	0xbd8fbd4c	-0.070185274
218	0xbe23863b	-0.15969174
219	0xbd474802	-0.048652656
220	0x3c60f221	0.013729603
221	0xbe0407a3	-0.12893538
222	0x3de98f19	0.11404247
223	0x3bb28589	0.0054480475
224	0x3dc6009f	0.09668087
225	0x3d473658	0.04863581
226	0xbd272716	-0.04080876
227	0xbe0b0bc8	-0.13578713
228	0x3d571efa	0.052519776
229	0xbd8db0ec	-0.06918511
230	0xbd45404b	-0.048157018
231	0xbe1ba3f5	-0.15199263
232	0x3d21d297	0.039507475
233	0x3e24a64b	0.1607906
234	0xbdf4d960	-0.119555235
235	0x3d9f7dd5	0.077876724
236	0x3cbe0f72	0.023200724
237	0xbd8134f6	-0.063089296
238	0x3daffc4c	0.08593044
239	0x3dbcfae5	0.09227542
240	0xbdc53e5f	-0.09631037
241	0xbcf244eb	-0.029573878
242	0x3e23b9b1	0.15988804
243	0xbdab2b76	-0.08357899
244	0x3d9382b6	0.072026655
245	0xbd2d74df	-0.042347785
246	0xbc91cbca	-0.01779737
247	0xbdae9461	-0.08524395
248	0x3e18d69e	0.1492562
249	0x3cc6f3c7	0.024286164
250	0xbe12c9ad	-0.14334746
251	0x3de97899	0.11399955
252	0x3c108ec3	0.0088231
253	0xbd3b0fc3	-0.04566933
254	0x3db3d5d8	0.08781022
255	0xbe248869	-0.16067661

lstm.bias_ih_l0 f4 [256]
0	0x3d3c6c28	0.046001583
1	0xbd89f969	-0.06737024
2	0x3dba397a	0.09092994
3	0xbcb31ad6	-0.021863382
4	0x3c876251	0.016526373
5	0xbd95bb30	-0.07311094
6	0xbe007536	-0.12544712
7	0x3d9ce367	0.07660561
8	0x3ddcd6d3	0.10783162
9	0x3d54263f	0.051794287
10	0xbc5aaaff	-0.013346433
11	0x3dc8099d	0.097674586
12	0xbdc1a9ec	-0.09456238
13	0xbd8339fd	-0.06407545
14	0xbd51ee17	-0.05125245
15	0xbd70afc8	-0.058761388
16	0x3cd91ed5	0.02650396
17	0xbdb58d6c	-0.08864865
18	0xbdc975ea	-0.098369434
19	0x3e0c2157	0.13684593
20	0x3d2ff8dd	0.042961944
21	0xbde44786	-0.111464545
22	0x3d543b26	0.05181422
23	0xbdb8aedd	-0.090177275
24	0x3bbb6cad	0.0057197423
25	0xbd22b938	-0.03972742
26	0xbdf64118	-0.120241344
27	0xbcc92a8a	-0.024556417
28	0xbdd10242	-0.10205509
29	0xbd8ee706	-0.06977658
30	0x3e07afa2	0.13250592
31	0x3e009b6f	0.12559293
32	0xbac2813d	-0.0014839541
33	0x3d92b137	0.07162707
34	0xbdc4f22e	-0.096165046
35	0x3db6c0e1	0.089235075
36	0xbde03229	-0.10947067
37	0x3ca1d5fd	0.019755358
38	0xbc21b162	-0.0098689515
39	0x3e09de6e	0.13463756
40	0x3e1c3c30	0.15257335
41	0xbd0d92e8	-0.03456393
42	0x3c925aca	0.017865557
43	0x3d94c5f5	0.0726432
44	0x3d4eab12	0.050456114
45	0x3dd6aabe	0.10481785
46	0xbc40193b	-0.011724765
47	0x3e267a9e	0.16257712
48	0xbba5caa3	-0.0050595566
49	0xbddb3b8b	-0.10704716
50	0x3e1304a5	0.1435724
51	0x3d912b83	0.07088377
52	0xbddb722d	-0.10715137
53	0x3d301dc0	0.04299712
54	0xbdcfbd1e	-0.10143493
55	0x3c0cb517	0.008588097
56	0xbdf68da4	-0.120387346
57	0xbd43583c	-0.04769157
58	0xbd6b9268	-0.05751267
59	0x3de8a0a7	0.11358767
60	0x3d97ca4e	0.074116334
61	0x3db5e3e5	0.08881358
62	0xbd49bd1b	-0.04925261
63	0xbda5dea8	-0.08099109
64	0xbd760f94	-0.06007345
65	0xbd61186e	-0.05495494
66	0x3df906c7	0.12159496
67	0x3d11b29d	0.03557073
68	0xbcd7ff68	-0.026366904
69	0xbda04d4f	-0.078272454
70	0xbcf036d4	-0.02932302
71	0x3daa78dc	0.08323833
72	0x3d653016	0.05595406
73	0x3db68430	0.089119315
74	0x3dd23fc9	0.10266072
75	0x3cff284c	0.031147145
76	0xbdfdb585	-0.12388138
77	0x3e03c4a9	0.12867989
78	0xbda165c1	-0.07880736
79	0x3e209f6a	0.15685812
80	0x3de3d3da	0.11124392
81	0xbd8a6bd1	-0.067588456
82	0xbdbf247b	-0.0933313
83	0x3e1e7727	0.1547514
84	0xbd41e5d6	-0.04733833
85	0xbd85efc8	-0.06539875
86	0x3d0404ef	0.032231268
87	0xbb8b0278	-0.0042422377
88	0xbde95aad	-0.11394248
89	0x3d4d6d5e	0.05015313
90	0x3d9901ef	0.07471072
91	0xbdd96cc3	-0.10616448
92	0xbbf6c816	-0.0075311763
93	0xbc9408d7	-0.018070621
94	0x3e0a2d95	0.1349395
95	0xbcd3a8bf	-0.0258373
96	0xbb042f4e	-0.0020169797
97	0xbbed8f24	-0.0072497297
98	0xbddf2343	-0.108953975
99	0xbdd62242	-0.10455753
100	0x3de82911	0.11335958
101	0x3d51faf0	0.051264703
102	0xbd80dca6	-0.06292085
103	0x3c8fc117	0.017548127
104	0x3da834cf	0.082131974
105	0xbcaee087	-0.021347297
106	0x3df5ba2e	0.119984016
107	0x3cbd5ea6	0.023116421
108	0x3c2b1b27	0.010443485
109	0x3df5ab52	0.119955674
110	0x3e10d04c	0.14141959
111	0x3e297728	0.16549361
112	0x3d5e5229	0.054277573
113	0x3cb4d657	0.022074861
114	0x3d6b5595	0.057454664
115	0xbc7dd4a7	-0.015492595
116	0xbdde4df5	-0.10854713
117	0x3dde57d5	0.108565964
118	0xbd843b3c	-0.064566106
119	0x3c9cff76	0.019164782
120	0x3dc1e52a	0.09467538
121	0xbda9ecf6	-0.0829715
122	0x3d9d70bb	0.07687517
123	0xbdb9f7d7	-0.09080475
124	0x3d48fa7c	0.049067006
125	0x3e0189e1	0.12650253
126	0xbd4d1718	-0.050070852
127	0x3db2a503	0.0872288
128	0x3df86cac	0.121301025
129	0x3cac5d53	0.021040594
130	0xbc33c064	-0.0109711625
131	0xbdc7f157	-0.09762829
132	0xbde18e9f	-0.11013531
133	0xbc5d4154	-0.013504345
134	0x3c675725	0.014119898
135	0xbdb6b1b1	-0.08920611
136	0x3dbc8963	0.09205892
137	0xbd12f576	-0.03587862
138	0x3d76d519	0.06026182
139	0xbd25918b	-0.040422004
140	0xbd872a72	-0.06599893
141	0x3c79941a	0.015233064
142	0xbdfaa9af	-0.12239396
143	0xbdc4f6ea	-0.096174076
144	0xbd5b8c85	-0.053600807
145	0xbd4d370a	-0.050101317
146	0xbd69735d	-0.056994785
147	0xbdb02772	-0.086012736
148	0x3d80c633	0.062878035
149	0xbddc8a98	-0.10768622
150	0xbd997588	-0.074931204
151	0x3cb04013	0.021514928
152	0x3dab413c	0.08362052
153	0xbc9fb648	-0.019496098
154	0xbd4a528d	-0.049395133
155	0xbde3468f	-0.11097442
156	0x3dadaec4	0.084805995
157	0xbb77dff7	-0.0037822702
158	0x3cdb221c	0.026749663
159	0x3d6cbcc9	0.057797227
160	0xbe058998	-0.13040769
161	0xbdbd7dfd	-0.09252546
162	0x3c916ef8	0.01775311
163	0xbd67fc50	-0.05663711
164	0x3da1881b	0.07887288
165	0xbdf26618	-0.11835879
166	0xbc0aded0	-0.008475974
167	0xbdb40275	-0.08789531
168	0x3d919555	0.07108561
169	0x3de02718	0.109449565
170	0x3ce7acfb	0.028280726
171	0x3b8338dc	0.004004581
172	0xbddbbe62	-0.10729672
173	0x3cf50683	0.029910332
174	0xbd25ef25	-0.04051127
175	0x3cc21d6a	0.023695666
176	0x3ddaa3c9	0.10675771
177	0xbd89604d	-0.06707821
178	0x3dce3faa	0.10070737
179	0x3d1fe2ba	0.039034583
180	0xbc9969bd	-0.018727178
181	0x3ce02a85	0.027364025
182	0x3d8233a9	0.0635751
183	0xbd96765c	-0.07346794
184	0xbd433bbf	-0.0476644
185	0x3dc915d7	0.09818619
186	0xbd9b3657	-0.07578724
187	0xbcacef07	-0.02111007
188	0x3dd4329a	0.10361214
189	0x3ddeb959	0.10875196
190	0x3e0e9772	0.1392496
191	0xbd95be22	-0.073116556
192	0x3dcc04e5	0.09961871
193	0xbdb649f7	-0.089008264
194	0xbc1ea234	-0.009682227
195	0x3c66704b	0.014064859
196	0x3d8c6281	0.06854726
197	0x3df41233	0.11917534
198	0xbd4828a5	-0.048866887
199	0xbd8ee2f6	-0.06976883
200	0xbc8b2d9e	-0.016989525
201	0x3e0af029	0.13568176
202	0xbc833230	-0.016015142
203	0xbdce5fa9	-0.100768395
204	0x3d06707b	0.032822113
205	0xbd54c6cc	-0.0519474
206	0xbd65cc11	-0.056102816
207	0x3e045e7b	0.12926666
208	0xbd229821	-0.039695863
209	0xbd29270e	-0.04129701
210	0xbd14af0b	-0.036299746
211	0xbc87e72d	-0.016589725
212	0x3bd49761	0.0064877723
213	0xbd2e26b0	-0.042517364
214	0xbd3d1af6	-0.04616829
215	0x3d89c9ed	0.067279674
216	0x3db448d8	0.08802956
217	0x3dd0fe14	0.102047116
218	0xbd216541	-0.039403204
219	0xbd938272	-0.07202615
220	0xbdc00f08	-0.09377867
221	0xbdeb52b7	-0.11490386
222	0x3cb22a6c	0.021748744
223	0xbc3406cf	-0.010987951
224	0xbd5f7b9e	-0.05456125
225	0x3d25c5d9	0.040471885
226	0xbd1ac86d	-0.037788797
227	0x3d08e302	0.033419617
228	0xbd4ccc57	-0.04999956
229	0x3c1a215a	0.009407366
230	0x3acf8592	0.0015832654
231	0x3d643dd4	0.055723026
232	0x3d90fc39	0.07079358
233	0xbcf4c1bc	-0.029877536
234	0x3e21968c	0.15780085
235	0x3c060d2e	0.008181853
236	0xbde34350	-0.11096823
237	0x3de436cd	0.11143265
238	0x3c88c158	0.016693756
239	0xbc7c22c5	-0.015389149
240	0x3df77b5c	0.12084076
241	0xbd2a934f	-0.04164439
242	0xba89838e	-0.0010491477
243	0xbdb45c41	-0.088066585
244	0x3dcbff11	0.099607594
245	0xbdba4339	-0.09094853
246	0xbe04e450	-0.1297772
247	0xbd8d6808	-0.06904608
248	0xbde61b6e	-0.112357005
249	0x3d2f51e3	0.042802703
250	0x3c7da17d	0.015480396
251	0xbc92cc52	-0.017919693
252	0xbd5d2b0e	-0.05399614
253	0x3dc78521	0.09742189
254	0x3e2df2d7	0.16987167
255	0x3dc9f2f5	0.098607935

lstm.bias_hh_l0 f4 [256]
0	0x3d0576a4	0.032583848
1	0x3e11e1b0	0.14246249
2	0xbdf09e1d	-0.11748908
3	0x3dc294e2	0.095010534
4	0xbceb57a6	-0.028728317
5	0x3d437e95	0.04772814
6	0x3d4534e2	0.048146136
7	0x3de34fa0	0.11099172
8	0xbd77c832	-0.060493656
9	0xbd36f131	-0.04466361
10	0x3d9f5f88	0.07781893
11	0xbd4a1c59	-0.04934344
12	0x3c796b24	0.015223298
13	0xbd426bf4	-0.047466233
14	0xbd94ee6a	-0.072720364
15	0xbc7f15aa	-0.01556913
16	0xbd95832e	-0.07300411
17	0xbc67e9b5	-0.014154841
18	0x3dfd2ddf	0.12362265
19	0x3d40f164	0.047105208
20	0x3d94ea4b	0.0727125
21	0x3cbc9be4	0.023023553
22	0x3cb0604e	0.021530297
23	0x3d12115f	0.035661098
24	0xbdbd8023	-0.09252956
25	0x3e100da4	0.14067703
26	0x3d646529	0.055760536
27	0x3cfed64f	0.03110805
28	0xbd8f3344	-0.069922
29	0xbd2da40b	-0.04239277
30	0x3e0dd411	0.13850428
31	0xbd9169f2	-0.071002856
32	0xbcf4096c	-0.029789649
33	0xbd7daa6d	-0.06193011
34	0x3c94fd0d	0.01818707
35	0x3d5d0e81	0.05396891
36	0x3be42209	0.006962065
37	0xbca568ae	-0.020191517
38	0xbd5e5554	-0.054280594
39	0x3da66911	0.081255086
40	0xbda1cb30	-0.07900083
41	0x3b48c77f	0.0030636487
42	0x3e0a7db4	0.13524514
43	0xbd51619e	-0.051118486
44	0xbad7993e	-0.0016448868
45	0x3d93a4e8	0.07209188
46	0xbd6b19e0	-0.057397723
47	0x3e16a25a	0.1471037
48	0x3d654980	0.0559783
49	0x3dbd4da9	0.09243328
50	0x3df92002	0.12164308
51	0x3de12b85	0.10994629
52	0xbdb5e233	-0.08881035
53	0x3d0f3f00	0.03497219
54	0xbcae6587	-0.021288646
55	0xbdc9f1c8	-0.09860569
56	0xbd0ad56c	-0.03389494
57	0xbd63bcbf	-0.055599924
58	0xbdaeed3b	-0.08541342
59	0x3d3143c6	0.043277524
60	0x3d24c4e9	0.04022685
61	0xbca772a9	-0.020440416
62	0x3d89d61c	0.06730291
63	0xbd4aee32	-0.049543567
64	0xbd2047ae	-0.03913086
65	0xbd76d16f	-0.060258325
66	0x3da4d5ee	0.08048616
67	0xbda9d8a3	-0.08293273
68	0x3cbae710	0.022815257
69	0xbdd0dc67	-0.101982884
70	0x3dbe26e5	0.09284762
71	0xbba5d1d6	-0.005060415
72	0xbde33939	-0.11094899
73	0x3dae6ac4	0.08516458
74	0x3dab4bab	0.08364042
75	0x3ddfcb77	0.1092748
76	0x3d2c42e5	0.042055983
77	0x3d1acee1	0.03779495
78	0xbcaeb06c	-0.021324359
79	0x3e267f9a	0.16259614
80	0x3d3c4df4	0.04597278
81	0xbc953885	-0.018215427
82	0x3daca3ad	0.08429656
83	0x3e0a2e7c	0.13494295
84	0xbd824fd0	-0.06362879
85	0x3d9e2fda	0.07723971
86	0xbdb187ac	-0.086684555
87	0xbe035c3a	-0.1282815
88	0xbcd4027d	-0.025880093
89	0x3d56977a	0.052390553
90	0x3d8f14a1	0.069863565
91	0x3c091bb6	0.008368423
92	0x3db80df5	0.08987037
93	0x3b45c42d	0.0030176744
94	0x3de87bf6	0.11351769
95	0xbde55155	-0.111971535
96	0xbc9bf4d7	-0.019037647
97	0xbd8c0c0f	-0.068382375
98	0x3d8c07a6	0.06837396
99	0x3d82ce79	0.06387038
100	0xbba30889	-0.0049753827
101	0x3d941684	0.07230857
102	0xbdd67113	-0.10470786
103	0xbd8cde1c	-0.068783015
104	0xbdc3908d	-0.09549055
105	0x3d33e6ad	0.04392116
106	0xbd3c884e	-0.046028428
107	0x3c928ecc	0.017890356
108	0xbd821bec	-0.06352982
109	0xbc7fb219	-0.015606427
110	0x3d9cf29d	0.07663462
111	0x3c41b607	0.011823184
112	0x3db5a917	0.08870142
113	0x3cd72725	0.026263783
114	0xbcf1ef58	-0.029533073
115	0x3cdba198	0.026810452
116	0x3db8f8d7	0.090318374
117	0xbbf33f57	-0.007423322
118	0x3de407f4	0.111343294
119	0x3d65af93	0.056075644
120	0x3bb0d96d	0.005397013
121	0xbde1fa38	-0.110340536
122	0x3d27835b	0.040896755
123	0x3de73275	0.11288921
124	0x3d4a4bd0	0.049388707
125	0xbcf39cb4	-0.029737808
126	0x3e08b699	0.13350905
127	0x3ddfd9d8	0.10930222
128	0xbdbaa236	-0.091129705
129	0xbdb600d0	-0.08886874
130	0xbd7d81b2	-0.061891265
131	0x3d820a09	0.0634957
132	0xbd853d8b	-0.06505879
133	0xbd584143	-0.052796613
134	0x3ac354ec	0.0014902628
135	0x3d63edc2	0.055646665
136	0xbd24a77d	-0.04019879
137	0xbd7b203c	-0.061310038
138	0xbd348b25	-0.04407801
139	0x3dd41bf2	0.10356893
140	0xbdd174e8	-0.10227376
141	0x3cc925e6	0.024554204
142	0x3d2a9cca	0.041653432
143	0x3bca5259	0.0061743674
144	0xbb489b1e	-0.0030610035
145	0xbd95d40f	-0.073158376
146	0xbd97e9cb	-0.07417639
147	0x3d53355f	0.05156457
148	0xbd885be5	-0.066581525
149	0xbdd9bd3c	-0.10631797
150	0x3bb79ca7	0.005603391
151	0xbda0cfb0	-0.07852113
152	0x3d96bee2	0.07360627
153	0x3cf19e10	0.029494315
154	0xbdeedcbd	-0.11663196
155	0x3db7d6cb	0.089765154
156	0x3de5688e	0.11201583
157	0xbd82b7f8	-0.063827455
158	0xbd88aa4f	-0.06673109
159	0x3db8e45e	0.090279326
160	0x3c4b8fe8	0.012424447
161	0x3b9f6596	0.004864405
162	0xbd037a9c	-0.03209935
163	0xbd9c163e	-0.0762143
164	0xbcb66637	-0.022265537
165	0x3d495794	0.049155787
166	0x3cf64273	0.030060982
167	0x3d2e6818	0.04257974
168	0xbdc1d513	-0.09464469
169	0xbda8c50c	-0.08240709
170	0xbd7ecc82	-0.062206753
171	0x3dd25f59	0.10272092
172	0x3cbaec74	0.022817828
173	0x3c2980b0	0.010345623
174	0x3d91a06b	0.071106754
175	0xbdbe4cb4	-0.09291974
176	0xbdaba16b	-0.083803974
177	0xbd5394c5	-0.05165555
178	0xbdd0a948	-0.10188538
179	0xbd0fedb5	-0.035138804
180	0x3da8042b	0.0820392
181	0x3d9459f1	0.072437175
182	0x3d8ae06f	0.067810886
183	0xbccdc135	-0.025116542
184	0xbbe45618	-0.006968271
185	0xbdf1f047	-0.118134074
186	0x3d8921c2	0.06695892
187	0xbd9a4bc3	-0.07533982
188	0x3daa1372	0.0830449
189	0xbd1cc2ab	-0.038271587
190	0xbdb87df2	-0.09008397
191	0x3da1ef3c	0.079069585
192	0x3c77d309	0.015125998
193	0x3d8a02b0	0.06738794
194	0x3c69fe86	0.0142818745
195	0xbd8c37c9	-0.06846578
196	0xbcc1a3b1	-0.023637624
197	0xbdccab4b	-0.09993609
198	0xbd48ce9d	-0.049025167
199	0xbca99e59	-0.020705389
200	0xbc50aa99	-0.012735986
201	0xbd2da3a0	-0.042392373
202	0xbd808d72	-0.062769786
203	0xbd34d0b7	-0.04414436
204	0x3ced6c2f	0.02898225
205	0xbc270547	-0.010194129
206	0xbd8d979a	-0.06913681
207	0x3e17008d	0.14746304
208	0x3d77b321	0.060473565
209	0xbb94b53d	-0.004538207
210	0xbd571293	-0.052507948
211	0x3dd23bae	0.10265289
212	0x3de74ed1	0.1129433
213	0x3c542ed5	0.012950619
214	0x3dcc6b1d	0.09981368
215	0x3dce77f1	0.10081471
216	0xbca4f9b4	-0.020138599
217	0x3e1de3e0	0.15418959
218	0xbc3c4c51	-0.011492805
219	0x3dc94914	0.09828392
220	0xbd799a39	-0.060938094
221	0x3d8abbfd	0.06774137
222	0x3d4de699	0.050268743
223	0x3dae4ab0	0.08510339
224	0xbd29edbc	-0.041486487
225	0x3c3d8e3b	0.011569555
226	0x3de23293	0.110448025
227	0xbd92f45c	-0.07175514
228	0xbd022017	-0.031768885
229	0xbdc0cfc4	-0.09414628
230	0x3ce4d5cf	0.027933983
231	0x3bccabf8	0.006246086
232	0x3e04993c	0.1294908
233	0x3bf70d3c	0.0075394195
234	0x3e12292c	0.14273518
235	0xbc133f32	-0.008987235
236	0x3d3d9679	0.04628608
237	0xbcd866f6	-0.026416283
238	0x3dc0ead7	0.09419792
239	0x3d9bcd81	0.07607556
240	0xbb00cf0d	-0.0019654662
241	0x3e0ce4ba	0.13759127
242	0x3d878829	0.06617767
243	0xbb9d1d8c	-0.004794782
244	0xbd957da7	-0.07299357
245	0xbd67bc9b	-0.056576353
246	0xbd83801a	-0.06420918
247	0xbd9332ba	-0.0718741
248	0x3ccd7d65	0.025084207
249	0x3ccebed1	0.025237473
250	0xbcefbbf7	-0.029264433
251	0x3d75f50f	0.06004816
252	0x3d5bc086	0.0536504
253	0x3df7fb13	0.121084355
254	0x3dcfeee0	0.10152984
255	0xbbd8c7b2	-0.0066156024

lstm.weight_ih_l1 f4 [256, 64]
0	0xbac1535f	-0.0014749578
1	0xbd6b5607	-0.05745509
2	0xbd1d6bd5	-0.038432915
3	0x3ded775f	0.11595034
4	0xbdcf39e1	-0.101184614
5	0x3dfaf831	0.1225437
6	0x3d1d4c0a	0.038402595
7	0xbd62ccd3	-0.055371117
8	0xbde1b6ab	-0.11021169
9	0xbd96bf76	-0.07360737
10	0xbd3269ae	-0.043557815
11	0x3d9c35d3	0.07627454
12	0xbcec0c63	-0.0288145
13	0x3da88d68	0.08230096
14	0xbd20b428	-0.03923431
15	0xbdaf0ffa	-0.08547969
16	0x3daaa86f	0.083329074
17	0x3dbf7ac7	0.0934959
18	0xbc81cb58	-0.015844032
19	0x3df1c357	0.11804836
20	0xbd1e9baf	-0.03872269
21	0x3dc17e96	0.094479725
22	0x3d22a672	0.039709516
23	0xbd337922	-0.043816693
24	0x3d6b56af	0.057455715
25	0xbd478e0e	-0.04871946
26	0x3daf02da	0.08545466
27	0x3c02b573	0.007977831
28	0x3cdf9fba	0.027297843
29	0x3d088133	0.03332634
30	0x3d2dcaa8	0.042429596
31	0xbd94ea9a	-0.07271309
32	0x3bb698a0	0.0055723935
33	0x3d08cb52	0.033397026
34	0xbdb5d4b6	-0.08878462
35	0x3b09322d	0.0020934448
36	0x3c15a3ba	0.009133274
37	0xbd122b01	-0.035685543
38	0x3b7c6afb	0.0038515914
39	0xbdf03452	-0.11728729
40	0xbd22bf0c	-0.039732978
41	0xbd92b513	-0.071634434
42	0xbda7122a	-0.081577614
43	0xbdb96c7f	-0.09053897
44	0x3deae0f3	0.11468687
45	0x3d28607b	0.041107636
46	0x3d25d5a6	0.040486954
47	0xbd199ff2	-0.03750605
48	0x3b6a6490	0.0035765506
49	0xbd835060	-0.06411815
50	0x3e1d0872	0.15335253
51	0xbcfa23e2	-0.030534688
52	0x3d57d831	0.05269641
53	0xbe0065b2	-0.12538794
54	0xbd8b4b8c	-0.06801519
55	0x3d3f626e	0.04672473
56	0x3d1153a6	0.035480164
57	0xbdcb969d	-0.099408366
58	0x3c8df3de	0.017328199
59	0x3e083c83	0.13304333
60	0xbd449e72	-0.048002668
61	0x3c900867	0.017582132
62	0xbd9f6500	-0.07782936
63	0x3d7d432d	0.061831642
64	0x3d30a4b0	0.04312581
65	0x3d6b97fa	0.057517983
66	0xbd2cad88	-0.04215768
67	0xbe3a7f75	-0.18212683
68	0x3d7de811	0.061988894
69	0x3de1b0ba	0.11020036
70	0xbd7785bd	-0.060430277
71	0xbc8411df	-0.016121803
72	0xbd1f75f2	-0.03893084
73	0xbda64b70	-0.08119857
74	0x3e0c52a6	0.13703403
75	0x3cf6c708	0.030124202
76	0xbbe96740	-0.007122904
77	0x3d6164fb	0.055027943
78	0xbe29395f	-0.16525792
79	0xbd968fce	-0.07351647
80	0x3d81c806	0.063369796
81	0xbdab6c89	-0.08370311
82	0xbda9fadb	-0.082998
83	0xbd9240ce	-0.07141267
84	0xbd02f09a	-0.031967737
85	0x3c1caf80	0.009563327
86	0x3c91bce8	0.017790273
87	0xbd46d4f3	-0.048542928
88	0x3b404526	0.002933809
89	0xbe3b6f54	-0.18304187
90	0xbe12c9c3	-0.14334778
91	0xbcfee984	-0.031117208
92	0xbd67e6a6	-0.056616448
93	0x3d25ab08	0.04044631
94	0x3e303f0b	0.17211549
95	0x3d1d8bd9	0.038463447
96	0x3e168789	0.1470014
97	0xbc7fae6a	-0.015605548
98	0x3d59b144	0.05314757
99	0x3da91ad6	0.08257072
100	0x3ce014f7	0.027353747
101	0xbd987919	-0.074449725
102	0xbc9af273	-0.018914437
103	0xbd8f388f	-0.069932096
104	0xbd365713	-0.044516634
105	0x3de72d45	0.11287931
106	0x3d2736ec	0.040823862
107	0xbdc5ec36	-0.09664194
108	0xbdf1a8c5	-0.11799768
109	0xbc60ee1a	-0.013728643
110	0xbcf5cac0	-0.030003905
111	0x3d3ebd72	0.046567388
112	0x3d36081f	0.04444134
113	0x3ddc3114	0.107515484
114	0xbd984458	-0.074349105
115	0xbddd8dfc	-0.10818097
116	0x3d6dfa91	0.058100287
117	0x3e1a4d3b	0.15068524
118	0x3db415d3	0.08793225
119	0x3cbc304e	0.022972252
120	0xbd0724ff	-0.032994267
121	0x3d305bad	0.04305618
122	0xbd6217f2	-0.055198617
123	0x3dc0c03f	0.09411668
124	0x3d0eeb5c	0.034892425
125	0xbcdad254	-0.02671162
126	0x3c80ea87	0.015736831
127	0x3d091653	0.033468556
128	0x3a5c9f09	0.0008416032
129	0x3daf16eb	0.08549293
130	0xbd94e272	-0.072697535
131	0x3dbf2896	0.09333913
132	0xbd0599b8	-0.0326173
133	0x3ccb0d51	0.024786623
134	0x3e0f1cbe	0.13975808
135	0x3e17ee23	0.14836936
136	0x3dc9b6e4	0.09849337
137	0xbd2b7020	-0.041854978
138	0x3cacc923	0.021092003
139	0x3dd4ea02	0.10396196
140	0x3cdf92bb	0.027291646
141	0x3da2fe31	0.079586394
142	0x3d3af330	0.045642078
143	0xbc5820a5	-0.013191377
144	0x3d3026af	0.04300564
145	0x3c2cf48f	0.010556354
146	0xbdb9815b	-0.09057876
147	0x3c42ed2c	0.0118973665
148	0x3df702a4	0.120610505
149	0x3b3d53dd	0.0028889098
150	0xbdf0bf7e	-0.11755274
151	0xbcd06c30	-0.025442213
152	0x3ddb5852	0.10710205
153	0xbd9f68f9	-0.07783694
154	0x3e053815	0.13009675
155	0xbe0c1a1f	-0.1368184
156	0x3dfc26c7	0.12312084
157	0x3d970387	0.0737372
158	0xbc346dd0	-0.011012509
159	0xbac0ae8e	-0.0014700459
160	0xbbfba02a	-0.007679005
161	0x3d4c546b	0.049885195
162	0x3d9545bb	0.07288691
163	0xbdd2334d	-0.10263691
164	0xbd96381a	-0.07334919
165	0xbc2ff5cb	-0.010739754
166	0xbcfa6819	-0.030567216
167	0xbd65c735	-0.05609818
168	0x3d87f88b	0.06639203
169	0x3d1833a6	0.03715863
170	0xbdbbbe49	-0.091671534
171	0xbdbcc837	-0.092178755
172	0x3c59bc41	0.013289512
173	0x3ce9cc8e	0.028539922
174	0xbdc2a383	-0.09503844
175	0xbc3e35ec	-0.011609536
176	0x3df53f92	0.11975016
177	0xbd111b58	-0.035426468
178	0x3c98fa5e	0.018674072
179	0x3d337770	0.043815076
180	0xbbf63b4f	-0.0075143944
181	0x3ce3fc34	0.02783022
182	0x3d24e31f	0.040255662
183	0xbe137124	-0.14398628
184	0xbcc5d9c9	-0.0241517
185	0x3de57f7c	0.11205956
186	0x3d185166	0.037187003
187	0x3dcc1cfa	0.09966464
188	0x3d90f22a	0.07077439
189	0xbdc7f467	-0.09763413
190	0x3c27953b	0.01022845
191	0x3c4cac0a	0.012492189
192	0xbdc7500c	-0.097320646
193	0xbb906b9c	-0.0044073593
194	0xbd9eca39	-0.07753415
195	0x3ca3acd8	0.01997988
196	0xbda15aa4	-0.078786165
197	0x3d89710b	0.06711014
198	0xbd89ea26	-0.067341134
199	0x3dad5442	0.084633365
200	0xbe0c0e54	-0.13677341
201	0xbc0cb7f1	-0.008588777
202	0xbd710ee7	-0.058852103
203	0x3d6ac682	0.057318218
204	0x3ccb28fa	0.024799813
205	0x3cd11174	0.025521018
206	0x3b3b97bc	0.0028624376
207	0x3d58414f	0.052796658
208	0xbd85d951	-0.065355904
209	0x3cc9867a	0.024600256
210	0xbcc31622	-0.023814265
211	0xbda94136	-0.08264391
212	0x3c789041	0.015171112
213	0xbd9d6e06	-0.07687001
214	0x3e0d981d	0.13827558
215	0xbd74faa5	-0.059809346
216	0xbe00b6ba	-0.12569705
217	0x3e208649	0.15676226
218	0xbd4f0f5b	-0.050551753
219	0x3dc1b135	0.09457628
220	0xbd3f10ca	-0.04664687
221	0xbd204b41	-0.039134268
222	0x39d8ecaf	0.00041375073
223	0x3d9f091d	0.0776541
224	0x3d8bc7d6	0.06825225
225	0x3b20642d	0.0024473772
226	0xbdf94ef3	-0.121732615
227	0xbddfcbf7	-0.10927575
228	0x3d7df70e	0.062003188
229	0xbdb0b64f	-0.086285226
230	0x3da6debb	0.08147951
231	0xbdd19b32	-0.10234679
232	0xbd91b364	-0.07114294
233	0x3d7a15ae	0.06105583
234	0xbcd474e5	-0.025934646
235	0x3d9dbd01	0.07702065
236	0x3dddf59f	0.10837864
237	0x3dda1b97	0.106497936
238	0x3dc1b7a0	0.09458852
239	0xbd30c907	-0.043160465
240	0xbc44c754	-0.012010414
241	0x3d50a4b4	0.050938323
242	0xbdceefe7	-0.101043515
243	0xbb652ce3	-0.0034969382
244	0xbd4d8370	-0.050174177
245	0x3c1dd164	0.009632442
246	0xbca49075	-0.020088414
247	0xbc21e53b	-0.009881313
248	0xbb159d7a	-0.002282946
249	0x3db27597	0.08713835
250	0x3ddae5c9	0.10688359
251	0x3dd70b54	0.105002075
252	0x3a6951b4	0.00089004193
253	0x3d7511ce	0.059831433
254	0xbb83980c	-0.004015928
255	0x3d9507f3	0.07276907

lstm.weight_hh_l1 f4 [256, 64]
0	0x3c39aa98	0.011332177
1	0xbd05bd64	-0.03265132
2	0xbd581247	-0.052751806
3	0xbd5873ab	-0.052844685
4	0x3d8bd1b5	0.06827108
5	0x3ded9fb2	0.11602725
6	0xbdda4cea	-0.106592014
7	0xbd59f1cf	-0.053209122
8	0x3dd3e1ce	0.10345803
9	0xbcc71212	-0.024300609
10	0x3dc3781c	0.095443934
11	0x3d2b7fdd	0.041869987
12	0x3c734b71	0.01484953
13	0x3d5d27c4	0.053993
14	0xbd063688	-0.03276685
15	0x3b5bbe94	0.0033530341
16	0x3df6aca4	0.12044647
17	0x3d92b21b	0.07162877
18	0xbdd42763	-0.10359075
19	0x3bd87a64	0.006606387
20	0xbc0b286a	-0.008493522
21	0x3d85c0a8	0.06530887
22	0xbc05ce03	-0.008166793
23	0x3dc3efe7	0.09567242
24	0x3d004033	0.031311225
25	0xbca1bec5	-0.019744286
26	0xbb3bde3a	-0.0028666393
27	0x3e06b470	0.13154769
28	0xbc95dee4	-0.01829476
29	0x3d83cd93	0.064356945
30	0xbdc0f964	-0.094225675
31	0x3d5c2210	0.053743422
32	0xbccf3cb7	-0.025297506
33	0x3dc666e6	0.09687595
34	0xbde5461c	-0.11195013
35	0xbd31400e	-0.043273978
36	0x3ca7cb19	0.020482587
37	0x3d1990c8	0.03749159
38	0x3dc17c16	0.09447496
39	0xbd48d1f2	-0.049028344
40	0xbd7743d5	-0.060367424
41	0x3daa9da3	0.08330848
42	0x3dd962db	0.10614558
43	0xbd8b9cdf	-0.0681703
44	0xbc852b1d	-0.01625591
45	0x3c816d06	0.015799057
46	0xbc53d606	-0.012929445
47	0xbdc8efa5	-0.098113336
48	0xbdca6db5	-0.09884206
49	0x3d17a326	0.037020825
50	0xbcab9b87	-0.020948185
51	0x3d175a5e	0.036951415
52	0xbdbd8aac	-0.09254965
53	0x3dd658fe	0.10466193
54	0x3d66ee54	0.05637963
55	0xba14441e	-0.0005655902
56	0xbd5e1280	-0.05421686
57	0xbdb91c2b	-0.09038576
58	0xbd872bc6	-0.06600146
59	0x3ca7b676	0.020472746
60	0x3d045d90	0.03231579
61	0x3cfb7ac1	0.030698182
62	0x3cd66b87	0.02617432
63	0xbca9821f	-0.02069193
64	0xbc3dc694	-0.011582989
65	0x3d8c1325	0.06839589
66	0x3d950e65	0.07278136
67	0xbdbb5185	-0.09146408
68	0xbdaf8e9a	-0.08572121
69	0x3bea6e9e	0.0071543
70	0x3d7e9c62	0.062160857
71	0xbdc5d033	-0.096588515
72	0x3ce8b7c9	0.028407948
73	0xbd671510	-0.05641657
74	0x3de3e81d	0.111282565
75	0xbc321e84	-0.010871533
76	0x3de490a0	0.111603975
77	0xbd296099	-0.04135189
78	0x3d72bf02	0.05926419
79	0xbb0d79d0	-0.0021587498
80	0xbd8af934	-0.06785813
81	0x3de1590c	0.110033125
82	0xbd5a600e	-0.05331426
83	0x3dafe451	0.0858847
84	0x3c550249	0.013001033
85	0xbd528083	-0.05139209
86	0x3e156787	0.14590274
87	0xbcbce60c	-0.023058914
88	0xbcc18198	-0.023621365
89	0x3d9f4442	0.07776691
90	0x3d8662ea	0.06561835
91	0xbdd09c68	-0.10186082
92	0xbde9dc4e	-0.11418973
93	0x3d1451df	0.03621089
94	0x3d96fce8	0.07372457
95	0x3dc1f977	0.0947141
96	0x3e05a969	0.13052906
97	0xbc724f3c	-0.014789399
98	0xbd9cde8f	-0.07659637
99	0xbe2038c3	-0.15646653
100	0xbdc0ad29	-0.09408028
101	0xbdf7ac0d	-0.12093363
102	0x3df55ef6	0.11981003
103	0x3dd3f657	0.1034972
104	0x3e008c7d	0.12553592
105	0x3d9d1e0b	0.07671746
106	0x3db03a91	0.08604921
107	0xbd32f8cf	-0.043694314
108	0xbdfe069c	-0.124036044
109	0xbd724340	-0.059146166
110	0xbcaf297d	-0.021382088
111	0xbd702e21	-0.058637742
112	0x3dafd236	0.085850164
113	0x3de3f815	0.11131302
114	0x3e04c7b8	0.12966812
115	0xbc1f8c9e	-0.009738116
116	0xbdc915f1	-0.09818638
117	0x3e002f2a	0.12517992
118	0x3bdc48f6	0.006722565
119	0x3d038c12	0.032116003
120	0x3de02069	0.10943682
121	0xbdaa7a11	-0.083240636
122	0xbcc96165	-0.024582574
123	0xbd2a3014	-0.041549757
124	0x3d9a0130	0.07519758
125	0xbcbab56f	-0.022791592
126	0x3d55851f	0.052128907
127	0x3dc0bf10	0.09411442
128	0x3d720c45	0.059093732
129	0x3d95c30b	0.07312592
130	0x3df05773	0.117354296
131	0x3dbf25cc	0.09333381
132	0x3ca16cdb	0.019705227
133	0x3df0155f	0.11722826
134	0xbd988506	-0.07447247
135	0xbd606535	-0.05478402
136	0x3db17384	0.08664611
137	0x3d85283b	0.06501814
138	0x3d4f4ab4	0.05060835
139	0x3bcb6a6f	0.006207756
140	0xbdb451a5	-0.08804635
141	0xbdf53c25	-0.11974362
142	0x3dc185f3	0.09449377
143	0xbcd35729	-0.025798397
144	0xbd03de85	-0.032194633
145	0xbd7d1037	-0.06178304
146	0xbd9d485a	-0.076798156
147	0x3d23b978	0.0399718
148	0x3d64aee9	0.05583087
149	0xbda1ab21	-0.078939684
150	0xbdf8ddd0	-0.121516824
151	0x3dc1a04b	0.094544016
152	0xbc9302bb	-0.017945638
153	0x3a18c591	0.00058277795
154	0x3c0356fb	0.008016343
155	0x3dda0498	0.106454074
156	0x3ddd0ca9	0.1079343
157	0x3d9b66af	0.07587945
158	0xbdb61526	-0.088907525
159	0xbd43ca0b	-0.047800105
160	0x3dd6d2fa	0.10489459
161	0x3d77f903	0.06054021
162	0x3d3fafbf	0.046798464
163	0xbd43ee87	-0.0478349
164	0xbd6edbe4	-0.058315173
165	0xbd97bf4b	-0.07409533
166	0x3d92b158	0.07162732
167	0xbdce479e	-0.10072254
168	0xbdc392d3	-0.09549489
169	0x3dfa4d5b	0.12221786
170	0xbc9e6fc5	-0.019340405
171	0xbde792b4	-0.11307278
172	0x3cadff72	0.02123997
173	0xbde16517	-0.110056095
174	0x3c91a13e	0.017777082
175	0xbcd0f5a0	-0.025507748
176	0x3bc98967	0.006150413
177	0x3e05f27f	0.13080786
178	0xbd8e45eb	-0.069469295
179	0xbdb39aa1	-0.087697275
180	0x3d9db7fe	0.07701109
181	0xbced555e	-0.02897137
182	0x3c685c92	0.014182227
183	0x3c02571c	0.007955339
184	0x3dabc1be	0.08386563
185	0x3d24c620	0.04022801
186	0x3d96518d	0.07339773
187	0x3dcacf8d	0.099028684
188	0x3c94a0b5	0.018143037
189	0xbd706f16	-0.05869969
190	0xbc88382d	-0.01662835
191	0xbb149d77	-0.0022676864
192	0x3d53fc8b	0.051754516
193	0x3dd8c667	0.10584717
194	0x3de319ff	0.11088943
195	0xbd8a272f	-0.06745755
196	0xbde54dec	-0.11196503
197	0x3ddfd2b5	0.10928861
198	0x3d9b986e	0.07597433
199	0x3d6e1ebd	0.058134783
200	0xbde151b8	-0.11001915
201	0xbc06fbf7	-0.008238784
202	0x3d420eec	0.04737751
203	0xbc4536e4	-0.012037013
204	0x3e0e27cb	0.13882367
205	0xbda79340	-0.081823826
206	0xbdb4d417	-0.088295154
207	0x3d8faa6e	0.07014929
208	0x3d3630ac	0.04448001
209	0xbd105602	-0.035238273
210	0x3d283561	0.04106653
211	0xbc095905	-0.00838304
212	0x3d97ad11	0.07406057
213	0xbd172d15	-0.036908228
214	0x3da95677	0.08268445
215	0x3df2cc65	0.118553914
216	0xbd5a5766	-0.053306006
217	0x3dbc5550	0.091959596
218	0x3ddc35d1	0.10752452
219	0xbbd293ef	-0.0064263265
220	0xbd824931	-0.063616164
221	0xbd256b3d	-0.040385474
222	0xbdb03e53	-0.086056374
223	0x3cd3d7ca	0.025859732
224	0xbe0fa0fe	-0.14026257
225	0xbcb6f819	-0.022335099
226	0x3d2a400e	0.041564994
227	0xbd3b8a17	-0.04578599
228	0xbdd3da49	-0.10344369
229	0xbdb689a1	-0.089129694
230	0xbdbf8960	-0.09352374
231	0x3da3f806	0.08006291
232	0x3d7334ca	0.059376515
233	0xbd73d134	-0.059525684
234	0xbde4304c	-0.111420244
235	0xbd471b05	-0.048609752
236	0x3d8bcfc3	0.06826737
237	0xbddf6c3a	-0.109093145
238	0xbdd4130f	-0.10355198
239	0x3ddfe2ff	0.10931968
240	0xbc3d80a9	-0.0115663195
241	0x3d346d92	0.044049807
242	0x3dcf8957	0.10133617
243	0x3defa8e5	0.11702136
244	0x3dc5d5f8	0.09659952
245	0xbddad558	-0.10685223
246	0xbc742930	-0.014902398
247	0x3dc63e7c	0.09679887
248	0xbc97aca5	-0.01851494
249	0xbcbf0566	-0.023318004
250	0x3d5336be	0.051565878
251	0xbd12a67a	-0.035803296
252	0xbd0b4788	-0.034003764
253	0x3dffe966	0.12495689
254	0xbdf38e4e	-0.11892377
255	0xbdcda73c	-0.10041663

lstm.bias_ih_l1 f4 [256]
0	0xbcb0912b	-0.021553596
1	0x3d128e78	0.0357804
2	0x3ced108b	0.028938552
3	0xbd107292	-0.035265513
4	0xbd4d7f9c	-0.050170526
5	0x3dae861d	0.08521674
6	0x3ded2bed	0.11580644
7	0xbc82157a	-0.015879381
8	0xbd174e1c	-0.036939725
9	0xbd5293ae	-0.05141037
10	0xbc9698ad	-0.018383348
11	0xbbef89eb	-0.0073101423
12	0xbd7aea28	-0.061258465
13	0xbd2d1fdf	-0.042266723
14	0x3e0965ab	0.1341769
15	0x3cb93cb2	0.02261195
16	0x3d768b03	0.060191166
17	0x3c19c3d4	0.009385068
18	0x3dafc611	0.085827
19	0x3d7495ba	0.059713103
20	0xbd5f160f	-0.054464396
21	0xbd975683	-0.07389548
22	0xbd19f3af	-0.03758591
23	0x3dac0186	0.08398728
24	0xbda0fa64	-0.07860258
25	0xba9aa15f	-0.001179736
26	0x3dc46397	0.09589308
27	0x3cbc72a4	0.023003884
28	0x3df872fe	0.12131308
29	0xbdebe15d	-0.11517594
30	0x3d150daa	0.036389984
31	0xbd806320	-0.062689066
32	0xbd5ae949	-0.053445134
33	0x3e05318f	0.13007186
34	0x3c874309	0.016511457
35	0xbc8b0c0e	-0.016973522
36	0xbda6fb7d	-0.08153436
37	0xbceb4e25	-0.028723786
38	0x3d3c3db5	0.045957286
39	0x3df5e341	0.12006236
40	0x3da80ecc	0.08205947
41	0x3d391823	0.045189034
42	0x3bf17ee6	0.007369864
43	0xbcf65827	-0.030071331
44	0xbdaf2946	-0.08552794
45	0x3d4b26d7	0.049597587
46	0x3dacf451	0.08445037
47	0x3dcb8704	0.099378616
48	0x3d78b51b	0.06071959
49	0x3d78dab6	0.060755454
50	0x3c0823d6	0.008309325
51	0xbd753fec	-0.059875414
52	0xbdc94e16	-0.09829347
53	0x3d22fda9	0.03979269
54	0x3bc8119f	0.006105616
55	0x3cfdae9c	0.03096705
56	0x3d4fd939	0.05074427
57	0xbcdac7a6	-0.026706528
58	0x3d89556b	0.06705745
59	0x3d1bed26	0.03806796
60	0x3d0aef83	0.033919822
61	0xbda3112e	-0.07962261
62	0x3dda31c2	0.10654022
63	0xbd8e78e5	-0.069566526
64	0xbd776cb9	-0.06040642
65	0xbd9998e2	-0.07499863
66	0x3dc81634	0.0976986
67	0x3cf61d0e	0.030043151
68	0x3c4fb78f	0.012678041
69	0xbdca38a9	-0.09874088
70	0x3dbe3018	0.09286517
71	0xbd4e4e1d	-0.050367463
72	0x3d5e77e7	0.054313567
73	0x3c53bb7a	0.012923116
74	0xbc9c7845	-0.019100318
75	0x3d9a3be3	0.07530954
76	0x3dfe455f	0.12415575
77	0xbcca9fa8	-0.024734333
78	0x3d9d2d01	0.076745994
79	0x3ddc7da7	0.10766154
80	0xbd3bf7aa	-0.045890488
81	0x3d70905b	0.058731418
82	0x3dc8ad17	0.09798639
83	0x3cf824a6	0.030290913
84	0x3d70ab62	0.058757193
85	0x3d9651e9	0.07339842
86	0x3df35823	0.11882045
87	0x3db58236	0.088627264
88	0xbda7c38e	-0.08191596
89	0x3d5afc9b	0.05346356
90	0x3da79ec6	0.081845805
91	0xbb620af2	-0.0034491387
92	0x3c14f0f2	0.009090649
93	0x3ca089b8	0.01959692
94	0x3cafde68	0.021468356
95	0x3d848652	0.06470932
96	0x3d8bf151	0.06833137
97	0x3cbef3d2	0.023309622
98	0x3ccd5c07	0.025068296
99	0x3d1179c9	0.035516534
100	0x3e07fcbc	0.13280004
101	0x3cebe56b	0.028795918
102	0xbd1bfb7f	-0.038081642
103	0xbdbee52a	-0.09321053
104	0x3dd8df82	0.10589506
105	0xbcc54a07	-0.02408315
106	0xbd83162f	-0.064007156
107	0xbc177f7e	-0.009246705
108	0xbd6be15a	-0.05758796
109	0x3df628b6	0.12019484
110	0x3d8a6d7e	0.06759165
111	0xbd8951eb	-0.06705078
112	0x3da55cf6	0.080743715
113	0x3cad8506	0.021181595
114	0xbd8279ad	-0.06370864
115	0xbdac51ec	-0.08414063
116	0x3db2a549	0.08722932
117	0x3dbc7747	0.09202438
118	0xbddc0a03	-0.10744097
119	0x3aebd7b9	0.0017993368
120	0x3e03ca44	0.12870127
121	0xbdadd54d	-0.084879495
122	0xbd775a5f	-0.06038892
123	0x3bcf080b	0.0063180975
124	0xbd741049	-0.059585843
125	0xbd8782c4	-0.066167384
126	0x3dd8698a	0.10567005
127	0xbd2c8e96	-0.042128168
128	0x3c277229	0.010220089
129	0xbdd0d750	-0.101973176
130	0x3d3885b7	0.045049395
131	0xbd9774aa	-0.07395299
132	0x3d3451fe	0.044023506
133	0x3deec592	0.11658777
134	0x3cf4d785	0.029887924
135	0x3c81f2f9	0.015862929
136	0xbbb5c1ff	-0.005546808
137	0xbd93e26b	-0.0722092
138	0xbc8e17a0	-0.01734525
139	0xbd624bb7	-0.05524799
140	0x3da86176	0.08221714
141	0xbc31bac6	-0.010847753
142	0xbde3fda6	-0.11132364
143	0x3dbdc668	0.092663586
144	0x3de743bc	0.11292216
145	0xbdc7b051	-0.097504266
146	0xbdea272e	-0.11433254
147	0x3dcf90b6	0.10135023
148	0xbb23e890	-0.0025010444
149	0x3ccfe1c1	0.025376203
150	0xbd04b264	-0.03239669
151	0x3db6e332	0.08930053
152	0xbae8eb6d	-0.0017770358
153	0xbdf24082	-0.1182871
154	0xbd3cd8d1	-0.04610521
155	0xbc96ffc5	-0.018432507
156	0xbdad419b	-0.08459779
157	0x3ce710d0	0.028206259
158	0x3daa171a	0.083051875
159	0x3dd1b77b	0.10240074
160	0x3b8f1f5a	0.004367751
161	0xbd04693a	-0.032326914
162	0x3b97f602	0.0046374807
163	0xbc67c144	-0.014145199
164	0x3e012a44	0.1261378
165	0xbd410c7b	-0.047131043
166	0x3dd86759	0.10566587
167	0xbd6f9dbf	-0.058500048
168	0xbc626e0c	-0.0138201825
169	0xbd65e54c	-0.056126878
170	0x3d866440	0.0656209
171	0x3dd4db3e	0.1039338
172	0xbdacc1c6	-0.08435397
173	0x3d34eb40	0.044169664
174	0xbd0283d7	-0.031864014
175	0xbb8033bc	-0.003912417
176	0xbd7ccacd	-0.061716843
177	0x3d87554b	0.06608065
178	0xbba74365	-0.0051044696
179	0x3dd56056	0.10418765
180	0x3da0692e	0.078325614
181	0x3dee079d	0.11622546
182	0xbd17c4d1	-0.037052933
183	0x3d547e5d	0.051878322
184	0xbd2dcedf	-0.042433616
185	0x3dede80f	0.11616527
186	0x3d6951f0	0.056962907
187	0xbd385912	-0.04500682
188	0xbc65dfff	-0.014030456
189	0xbd2e2bdd	-0.0425223
190	0xbd5cfafa	-0.053950287
191	0xbd0b492a	-0.03400532
192	0x3cfeafce	0.03108969
193	0xbc5a50c7	-0.013324923
194	0x3dc506db	0.09620448
195	0x3dd35520	0.10318971
196	0x3d52fc21	0.05150998
197	0x39fb7f9e	0.00047969533
198	0x3d27318f	0.040818747
199	0x3cef0d3f	0.02918112
200	0x3c91423f	0.017731784
201	0xbd85916c	-0.06521878
202	0x3dfc8673	0.12330332
203	0x3e178486	0.14796647
204	0xbb7b703e	-0.0038366462
205	0x3d006858	0.03134951
206	0x3de5070e	0.11182986
207	0xbd18b523	-0.03728212
208	0xbd0946af	-0.033514675
209	0xbd7deab0	-0.061991394
210	0x3e156458	0.1458906
211	0x3decf827	0.11570769
212	0xbdbeee55	-0.09322802
213	0x3d0aec35	0.03391667
214	0xbbb91f3a	-0.0056494744
215	0x3d42ff13	0.04760654
216	0xbd91c484	-0.071175605
217	0x3cbd9c8f	0.023145942
218	0x3d92282f	0.07136571
219	0x3d51518f	0.05110317
220	0x3dc1f5da	0.094707206
221	0xbd17ed59	-0.037091587
222	0x3da28a8e	0.079365835
223	0x3d32e2ed	0.043673445
224	0x3bb1172f	0.005404375
225	0x3dc137fe	0.09434508
226	0x3decedae	0.11568771
227	0xbde2fe75	-0.1108369
228	0xbd92653b	-0.071482144
229	0xbdac3e19	-0.08410282
230	0x3db76147	0.08954101
231	0x38442f1c	4.6773916e-05
232	0xbdd8a0c0	-0.10577536
233	0x3d6d4427	0.057926323
234	0x3ddd89ae	0.10817276
235	0x3dd2791c	0.10277006
236	0x3db135b7	0.086528234
237	0xbdb23bbe	-0.08702801
238	0xbde5966e	-0.11210333
239	0xbd882c95	-0.06649128
240	0x3c8d8637	0.017275913
241	0x3d8d3a7d	0.068959214
242	0xbdd6fce7	-0.10497456
243	0xbdbf4cc7	-0.09340816
244	0xbd113efc	-0.035460457
245	0x3d076314	0.033053473
246	0x3ca34964	0.019932456
247	0xbcadfb61	-0.02123803
248	0xbd8fbdaf	-0.07018601
249	0x3b5902f9	0.0033113344
250	0x3dde4ba1	0.10854269
251	0x3ba47751	0.0050191064
252	0x3cc6c7bd	0.024265165
253	0xbd6020d5	-0.05471881
254	0xbd872c4f	-0.06600248
255	0xbd68c435	-0.056827743
